models/keypoint_classifier.tflite (tflite, 6368 bytes, 6 tensors)

dense_2/bias f4 [3]
000000 93 e9 cd 3e dd a7 7e bd 88 10 b7 be
       0.40217265 -0.062171806 -0.357548

dense_1/bias f4 [10]
000000 cc a7 c2 be 3f 7c 29 3f e3 dd fe 3e 56 62 9d be
       -0.38018644 0.6620521 0.4977866 -0.30739087
000010 3b ed 01 be 5e d4 47 3e 49 52 e9 3d 4c 9a 27 3e
       -0.12688152 0.19514605 0.11392648 0.16367453
000020 54 bf 16 3f ee e2 44 3e
       0.58885694 0.19227192

dense/bias f4 [20]
000000 cd 84 fd 3d 54 8f 23 bf c7 82 89 3e bc c3 0b be
       0.12378845 -0.63890576 0.26857588 -0.13648885
000010 91 96 bc bc fe 75 11 bf 19 9f 50 be 3a 17 d1 bd
       -0.023021014 -0.56820667 -0.20373191 -0.10209508
000020 ea 6e 7a be 4d c1 2d bf 1a 6c fa 3e c2 8f 40 bd
       -0.24456373 -0.6787308 0.489106 -0.047012098
000030 86 2a 4c bf 8a 32 ce 3e f1 42 46 bf ae be 02 bf
       -0.79752386 0.40272933 -0.77445894 -0.51072204
000040 9d ea fe be 12 b5 4a 3e 05 2c 85 be 25 a1 57 bf
       -0.4978837 0.19795635 -0.26010147 -0.8423026

sequential/dense/MatMul f4 [20, 42]
000000 d8 9b 7c 3e 5e 44 3c 3e e7 62 34 3e d1 45 ab 3e
       0.24668825 0.18385455 0.17615853 0.33451703
000010 8e 36 09 bd 2e 1f 4d 3e 0b c0 4b bf 14 bf fa 3c
       -0.033499293 0.20031425 -0.7958991 0.030608691
000020 c2 bf 0d bf aa 85 8e 3d ad 87 0e 3e 8d 26 b4 3d
       -0.55370724 0.06959088 0.13918944 0.087964155
000030 60 35 2d 3e ce fa ad 3d da 9e 38 3e 11 13 c8 bd
       0.16914892 0.08495103 0.18029347 -0.09769262
000040 bd 52 03 3e 2d 53 9c be ff 38 0b 3f 9c 53 f2 3d
       0.12824531 -0.30532208 0.54383844 0.118323535
000050 f8 6b 02 3e b7 40 fd 3c 48 9b 00 3f 3c cb df 3c
       0.127365 0.030914648 0.5023694 0.02731859
000060 fa 54 08 3f d9 18 ca bd e2 b3 62 be fb 75 89 3d
       0.53254664 -0.098680206 -0.22138932 0.06711956
000070 77 b4 4f be 20 9b 7f 3d c2 96 2c 3e 59 32 12 3d
       -0.20283686 0.062403798 0.16854385 0.035692547
000080 81 99 f2 3e bd 2b 69 be 50 7d c7 be b3 bc 99 3d
       0.4738274 -0.22770591 -0.38962793 0.07506695
000090 77 4a e3 bc 17 89 d5 3d ea 15 24 3f 14 7e 7d 3d
       -0.027745469 0.104265384 0.6409594 0.061887816
0000a0 ef 7a 31 3f 81 b2 f4 bd 38 29 4e bd 75 49 86 be
       0.69328207 -0.119481094 -0.050332278 -0.26227918
0000b0 b1 12 b5 be da a6 4a bf 53 a6 a2 3e 89 c3 90 be
       -0.35365823 -0.79160845 0.3176752 -0.2827418
0000c0 55 e9 df 3e d5 1d c8 bd 1d 85 1c 3f 05 96 b0 3b
       0.43732706 -0.09771315 0.61140615 0.0053889775
0000d0 a7 2d 90 be e3 47 6e be 3f f9 b8 be 30 1b 29 be
       -0.2815983 -0.2326961 -0.3612766 -0.16514277
0000e0 a8 65 c6 bd 81 e6 31 3d 79 cd 14 be 6b f3 b5 bc
       -0.09687358 0.043432716 -0.14531507 -0.022210797
0000f0 4b ca 31 bf 71 96 11 be ef 71 ee be 46 d0 1f be
       -0.694493 -0.14217545 -0.465713 -0.15606794
000100 3b 1e 14 be 50 2e 93 bb 29 03 18 be 52 32 f3 3d
       -0.14464657 -0.004491605 -0.14844956 0.11874832
000110 38 2b 81 bd 0c d5 ea bb 28 23 14 3e 1d e4 a0 bd
       -0.063070714 -0.0071665104 0.14466536 -0.07856009
000120 22 b6 1f be 71 04 73 3d 09 ed fb be bf d9 08 3c
       -0.15596822 0.059330408 -0.4920428 0.008352696
000130 13 98 ed 3e d8 13 92 be ae 5a 80 be c4 22 7c be
       0.46405086 -0.28530765 -0.25069183 -0.24622637
000140 e0 91 c3 be c8 51 0b 3e b1 13 04 bf 37 b1 d6 3d
       -0.3819723 0.13605416 -0.51592547 0.1048302
000150 f0 1c cf bc 98 5f 42 3e fc 63 c6 3e 90 a1 d8 3d
       -0.025282353 0.18981779 0.38748157 0.105776906
000160 87 bd ea 3d b5 97 e2 3d 21 d6 9c 3e 61 f2 62 3d
       0.11461931 0.11064092 0.30632117 0.05540693
000170 b6 95 b8 3e 6a 70 4a 3d 3d 23 4e 3e 2d 82 9a 3d
       0.3605172 0.049423613 0.2013063 0.0754436
000180 cd 17 8b 3d 5b 36 4c 3d c0 89 2b 3d 55 26 8b 3d
       0.06791649 0.049856525 0.041879416 0.06794421
000190 8b 4c 65 3d 57 a0 65 bf 27 de a9 3e 76 48 ba 3d
       0.0559812 -0.89697784 0.331773 0.09095852
0001a0 1d d6 9d 3d ab b7 79 3d 8d c9 83 bd ee 1d a0 3d
       0.077068545 0.060966175 -0.06434927 0.07818209
0001b0 42 74 80 be 13 8e 5a 3d db 9f 64 be b1 e5 a1 3d
       -0.25088698 0.05335815 -0.22326605 0.07905138
0001c0 3e 0b a2 bd ad 18 69 3d 55 e2 3b be d2 9d d1 3d
       -0.079123005 0.0569083 -0.18348058 0.1023518
0001d0 90 8c 87 be d4 97 0b 3e 6e a0 50 be 77 f3 83 3d
       -0.26474428 0.13632137 -0.20373699 0.064429216
0001e0 c5 c1 88 be c7 4f 61 3d a6 58 f7 be 8f b6 d2 3d
       -0.26710334 0.055007722 -0.4830982 0.102887265
0001f0 42 fd 11 bf 4b 42 2d 3e dc f7 58 3e 90 7f 7b be
       -0.57027066 0.1691982 0.21188301 -0.2456038
000200 40 f6 0c 3e 3b 79 b6 be e5 7d 67 3d 96 62 f4 be
       0.13765812 -0.35639367 0.056516547 -0.47731465
000210 00 42 a9 3e c2 b0 91 be b9 3f da 3e c5 de ab be
       0.33058167 -0.28455168 0.42626742 -0.33568397
000220 74 0e 63 be c9 e3 58 be bd 08 6e be e9 f2 a7 bd
       -0.22173482 -0.21180643 -0.23245521 -0.08200628
000230 95 9c 06 be 6b e1 f4 bc 25 a7 0f 3d b4 6c d0 bd
       -0.13145669 -0.029892644 0.03507151 -0.101769835
000240 7d 3f 28 bf 40 04 11 3e dc 7b ab be b9 9f c9 3d
       -0.65721875 0.14161777 -0.33492935 0.09844918
000250 97 7d 91 be e8 0e 65 3d d8 7f 02 bf 49 3f 10 3e
       -0.2841613 0.05592242 -0.50976324 0.14086641
000260 9b f2 44 3d cf 9e 8c be 42 5f d2 be fe 30 ab 3d
       0.04808293 -0.2746491 -0.410883 0.08358954
000270 f0 dc dd be 95 85 41 3e d1 d5 c3 be 53 18 0f 3e
       -0.43332624 0.18898614 -0.38249066 0.13974123
000280 eb e3 91 3e 9d e9 f1 bd 75 ac 5d bb ec 09 d0 3c
       0.284942 -0.11812136 -0.0033824716 0.025395356
000290 dc 2d 05 bf 9b 9f 91 bd a0 6b 08 bf 0b c8 4f 3e
       -0.520231 -0.071105205 -0.5328922 0.20291154
0002a0 a4 57 7e 3e 5e 85 16 3e 8a 85 15 3e 98 db dc 3d
       0.2483812 0.14699313 0.14601722 0.10784072
0002b0 5e 94 31 be 86 be 15 3e 20 e2 5e 3e b4 04 9a 3e
       -0.17341754 0.1462346 0.21765947 0.30081713
0002c0 90 bc 6f 3d 71 84 40 3d 50 1d 92 be 48 0b 9f bd
       0.058529437 0.047001306 -0.2853799 -0.077658236
0002d0 d6 b8 9c 3e cd da 48 3a 00 ce 8b bd 0a 54 87 3e
       0.3060977 0.00076619984 -0.06826401 0.26431304
0002e0 e1 7b c3 3d a6 19 9a 3e a1 46 5a 3c b6 c6 8c 3e
       0.095451124 0.30097693 0.013322503 0.27495354
0002f0 65 c0 4c 3e 19 4a 7c 3e 1e 4f 4f 3e 61 2d 6f be
       0.19995268 0.24637641 0.20245025 -0.23357154
000300 84 e3 ec bd c7 4b 0f 3e d7 5a 3e be 4c 6d 85 3e
       -0.11566833 0.1399375 -0.1858934 0.2605995
000310 b6 2f 3e 3e e8 ed 7e 3e 96 54 88 be 35 24 7d bd
       0.18572888 0.24895442 -0.26627034 -0.061802108
000320 f2 02 fe bd 71 63 86 3e 78 35 9e bd d1 46 72 bd
       -0.124029055 0.26247743 -0.07725042 -0.059149567
000330 63 ea 7d 3d 84 0d 64 3e 0d 35 8f be 96 bc 4a 3e
       0.061991107 0.22270781 -0.27970162 0.19798502
000340 58 48 80 3d af 80 22 be 9a fc 22 3e 04 98 04 3e
       0.062637985 -0.15869401 0.15916672 0.12948614
000350 b0 f4 ea be 8e 7c 96 be 0c fe cb bd e4 bb 5b 3d
       -0.45889807 -0.29391903 -0.09960565 0.053645983
000360 be e7 c3 bc f2 c6 f3 be cf f6 d4 3e bf 2b c7 3d
       -0.023914214 -0.4761272 0.4159455 0.09725141
000370 d7 05 01 be 4d 2f d8 3c ca 67 f0 bd 08 f2 22 bd
       -0.12599884 0.026389742 -0.11738546 -0.0397816
000380 4c 43 09 be b9 29 df 3c ae a5 74 3b c4 0c 09 bc
       -0.13404578 0.027241575 0.0037330198 -0.00836486
000390 31 f4 47 bf 33 bd 62 be 1b 80 92 bd b6 55 22 3e
       -0.7810698 -0.22142486 -0.071533404 0.15853009
0003a0 6a 7b 97 be 1d a9 94 3d ea 3d 15 be 9f a5 b7 3d
       -0.29586345 0.07258818 -0.145744 0.089671366
0003b0 8c 31 df 3d 3e 73 62 3d ce 6f 9e 3d 86 cb 51 be
       0.10898122 0.055285685 0.07736169 -0.20487794
0003c0 7c 97 23 3e ea 1b d8 bd c4 b1 24 be ff 75 86 bd
       0.15975755 -0.10552199 -0.16083437 -0.06565475
0003d0 a0 33 67 3e b8 fb df 3d 77 be 29 3e 8b 3a bd 3d
       0.22578287 0.109366834 0.16576563 0.09239682
0003e0 ce d1 63 3d da e8 a8 bc 5e 85 4d 3e ea 2c 04 3b
       0.055620007 -0.020618845 0.20070407 0.0020168372
0003f0 88 29 1a 3e 90 4a 72 3d be 05 e1 3c d7 db 1c 3f
       0.15054905 0.05915314 0.027468558 0.6127295

sequential/dense_1/MatMul f4 [10, 20]
000000 80 79 88 3e 3c 5a a9 bc fa 3a 00 bf 66 b9 52 be
       0.26655197 -0.02067291 -0.5008999 -0.20578536
000010 a1 92 3f 3e e4 7e 1d 3f 38 ce a3 3d 62 94 84 3e
       0.18708278 0.61521745 0.079983175 0.25894457
000020 09 1d 0a 3f 61 c5 a7 be 25 be 13 bf 5a 02 8b bc
       0.53950554 -0.32767776 -0.5771201 -0.016968895
000030 97 cb 12 3f 5e 8c 8b bd d5 2d da bd c7 be 1a bd
       0.57341903 -0.06813882 -0.10653273 -0.037779596
000040 de 26 58 3f 3e 52 a2 be 2e 6e 98 bd 98 a6 1c 3f
       0.84434307 -0.3170337 -0.0744289 0.611917
000050 23 56 1c 3f c9 53 07 bd b7 6f 94 3f 21 10 4b 3e
       0.61068934 -0.033038888 1.1596593 0.19830371
000060 68 d5 bb bd c1 a4 1b bf 07 32 45 3d f1 64 e3 3e
       -0.091715634 -0.6079827 0.048143413 0.4441295
000070 ad 71 69 be 0b f2 00 be 5f 31 53 3f 67 a3 35 be
       -0.2279727 -0.12592332 0.8249721 -0.17738114
000080 33 32 5e bf 91 c4 f0 3e 33 fd 05 bf 52 8c 00 be
       -0.8679535 0.47024968 -0.52339476 -0.12553528
000090 49 d8 39 bf 99 c1 79 3f af 61 0f 3e e0 16 9e 3c
       -0.7259565 0.9756103 0.14002107 0.019298017
0000a0 ac d3 bc be 1c 63 78 3e a4 61 0e 3f 2f b5 f2 3e
       -0.36880243 0.24256557 0.5561774 0.47403857
0000b0 11 29 83 3e b9 a9 48 be e6 63 ef be ee f6 12 bf
       0.2561727 -0.19595994 -0.46755904 -0.57408035
0000c0 aa 94 da be 1b be 9d 3e 8d eb 23 3f 3e f1 53 be
       -0.42691547 0.308091 0.64031297 -0.20697495
0000d0 48 0d 87 be a0 a8 19 3e 03 9d 5d bd af f1 4e 3e
       -0.2637732 0.15005732 -0.054104816 0.20209382
0000e0 37 80 bf bc 39 51 3e 3e aa 91 2c 3f 60 c3 c6 3e
       -0.023376567 0.18585671 0.67409766 0.38820934
0000f0 46 99 0c bf df 70 01 3e e3 4b 3d bf 3f ae d0 3e
       -0.54921377 0.12640713 -0.7394392 0.4075794
000100 cd b4 49 be ed 92 44 3f 78 6e 67 be 51 ca 84 be
       -0.19697876 0.7678669 -0.22600734 -0.25935605
000110 00 fa f1 3c fa 25 0f 3f 6a fc 1d bf 18 0a 4d 3d
       0.029538155 0.5591732 -0.6171328 0.050058454
000120 d1 da 79 3e 85 32 c0 be ac b4 54 3f 9e 62 89 bc
       0.24399878 -0.37538543 0.83088183 -0.016770657
000130 03 53 c6 3d 0f a8 51 bf 6e f9 10 3f 19 8d e6 3e
       0.09683802 -0.8189706 0.566306 0.45029524
000140 3f 1b 51 be 1f 98 6b 3e d4 c1 5c bf 5d fa 9d 3e
       -0.2042055 0.23007248 -0.8623326 0.30855075
000150 2d b9 c8 be 9b 04 fb 3d 58 b9 48 3f cf 0b 3b 3f
       -0.39203778 0.12256738 0.7840781 0.73064893
000160 f8 e2 19 3f ae 92 9e 3e d2 36 1f bf cd 75 ce be
       0.6011195 0.30971283 -0.62193024 -0.4032425
000170 ae 20 31 3f cc 61 80 3e 6f a1 11 3f 34 12 e5 3e
       0.6919049 0.25074613 0.56886953 0.4474045
000180 9f 9b c3 3e 80 62 56 bf 59 51 82 bd ec d1 a2 3d
       0.38204667 -0.8374405 -0.06363172 0.07950196
000190 f2 06 43 3f d2 20 de be 2d 48 10 3d 1a 9a c4 be
       0.7618247 -0.43384415 0.035225082 -0.3839882
0001a0 82 bf d0 3e 4d 8d 86 3b 45 94 0a 3f 9f ef 06 3f
       0.4077111 0.0041062 0.5413249 0.5270938
0001b0 a5 9c 2b 3f 77 11 13 bf cc 31 26 bd 7f 84 2b bd
       0.67035896 -0.57448524 -0.040574834 -0.041874405
0001c0 ba 0e 04 3f f8 9c 1b 3f b2 1f 0f be 1d 29 38 be
       0.5158497 0.6078639 -0.13976935 -0.17984433
0001d0 bc cf 13 3f 54 86 10 be 07 c9 ad bd 2d ae c2 3d
       0.5773885 -0.14113742 -0.084856085 0.09505878
0001e0 ce f2 14 3f 3e 72 a5 be 84 b0 30 bf 6e d4 7b 3d
       0.5818299 -0.32313722 -0.6901934 0.061481886
0001f0 32 b9 0f 3e c3 ed ef 3e 22 bd c8 3e df db dc 3e
       0.1403549 0.46861085 0.39206797 0.43136498
000200 e1 a7 99 3e b9 8d ea 3e df 46 26 bf c4 b4 85 3e
       0.30010894 0.4581125 -0.6495189 0.26114476
000210 aa d4 e8 3e d5 32 d9 be b1 5d a0 3b 54 4c f1 3e
       0.4547475 -0.42421594 0.0048939814 0.47128546
000220 8c 2e a8 3e a4 c8 12 bf 48 f1 08 3f d7 df 41 bf
       0.32848012 -0.57337403 0.53493166 -0.7573218
000230 86 45 16 3f 89 05 f7 be 40 cb 0b bf 2d a3 da be
       0.58699834 -0.4824641 -0.5460701 -0.42702618
000240 c6 13 96 3e f0 05 a4 bd 9e 69 1c 3f ce ba 0c 3f
       0.2931196 -0.08008945 0.6109866 0.5497254
000250 34 78 48 3f 89 8e d6 be b6 1b d5 3e 2e 3e 85 3e
       0.78308415 -0.4190562 0.41622704 0.26024002
000260 78 06 32 3f 37 5a 12 3f 5b ba ff bc 00 c2 e0 bd
       0.6954112 0.57168907 -0.03121679 -0.109745026
000270 81 a0 35 3f 24 a7 63 be 25 3a b3 be 4a 12 8d bd
       0.70948035 -0.22231728 -0.35005298 -0.06888254
000280 eb 22 71 be 10 a3 b7 3e 9b 91 a7 3e 6f 12 96 3e
       -0.23548476 0.35866594 0.32728276 0.2931094
000290 8e 2e 91 3d ae 06 84 3e dc da 95 be 3d 97 c7 be
       0.07088958 0.25786346 -0.2926854 -0.38982573
0002a0 93 bf 20 bf b9 2c a1 3e 41 21 fb 3e a8 73 03 be
       -0.6279232 0.31479433 0.49048808 -0.12837088
0002b0 ae b7 9b be 60 58 38 3d 97 ae bd 3d db 88 9d 3e
       -0.30413574 0.045006156 0.09261816 0.30768475
0002c0 d0 d2 82 be 19 23 ff 3e a0 9e 8b 3e 49 06 ed 3d
       -0.25551462 0.49831465 0.2726946 0.115734644
0002d0 1a f7 41 bd 7a 1d 5c 3f d9 e7 45 bf cc ea c5 bc
       -0.047354795 0.8598248 -0.77306896 -0.024159811
0002e0 25 ed bd 3e 23 73 2d 3f 0c a0 70 be 14 67 4d be
       0.3709499 0.6775381 -0.23498553 -0.20058852
0002f0 82 14 0f 3d 28 fd 86 3e 21 44 de be 28 1e 9d bd
       0.034931667 0.26365018 -0.43411353 -0.076717675
000300 9b cd 22 3e 21 31 d1 be eb c7 79 3e 74 49 22 3f
       0.15898745 -0.40857795 0.24392669 0.6339333
000310 6f fc 1a 3e 8b dc 37 bf 6e c0 8b be b9 61 09 bf
       0.15135358 -0.71820897 -0.2729525 -0.5366474

sequential/dense_2/MatMul f4 [3, 10]
000000 af 63 aa bf fc c8 94 3f 55 1d 50 3f 0f e5 3b bf
       -1.3311671 1.1623836 0.8129476 -0.7339639
000010 58 d9 97 bf fc b9 e0 3d ae e0 9d bf 12 97 ba be
       -1.1863203 0.10972974 -1.2334192 -0.36443383
000020 4e 36 85 3f 6a ac 71 bf 5b b3 2f 3f a3 a1 1e 3f
       1.0407197 -0.9440371 0.6863305 0.6196539
000030 92 02 c7 bd 60 5c b1 be 8b 04 fe 3e 27 5c 77 3f
       -0.09717287 -0.3464079 0.4961284 0.9662499
000040 4f 53 b1 be 1f 34 f1 3e f2 22 8f bf 76 6b 2c bf
       -0.34633872 0.47110078 -1.118254 -0.6735147
000050 3b a5 1f 3f e5 82 2f bf a2 03 05 3f 05 0f 8e 3f
       0.62361497 -0.68559104 0.5195867 1.1098334
000060 ee 84 38 3f 6f 29 13 3e b1 f4 a9 3e f6 6f ed be
       0.72077835 0.14371274 0.33194497 -0.46374482
000070 1c 65 45 3d 87 65 67 3f
       0.04819213 0.90389293
