models/point_history_classifier.tflite (tflite, 6320 bytes, 6 tensors)

dense_9/bias f4 [4]
0.9720653 -0.8692268 -0.09410254 0.17677847
00000000: 46d9 783f a685 5ebf d5b8 c0bd 6a05 353e

dense_8/bias f4 [10]
0.10736574 0.9107417 0.115787536 1.7793428 0.35122442 1.5205444 -0.009595575 -0.09271176
-1.1531838 0.14189878
00000000: 92e2 db3d 5e26 693f 0422 ed3d 81c1 e33f
00000010: b0d3 b33e 33a1 c23f c236 1dbc aadf bdbd
00000020: 879b 93bf ea4d 113e

dense_7/bias f4 [24]
-0.19362564 -0.0430459 -0.12599596 -0.016875228 0.1779613 -0.079907216 0.11691427 -0.2734559
-0.2041724 -0.13905552 -0.14730364 -0.2570822 -0.14326617 -0.13396885 -0.050342675 -0.019333363
-0.014232656 -0.032834645 -0.04312177 -0.15341686 -0.1431509 0.06823384 -0.0627797 -0.023246715
00000000: cd45 46be e650 30bd 1605 01be eb3d 8abc
00000010: 7d3b 363e 65a6 a3bd c070 ef3d 6902 8cbe
00000020: 9212 51be 9264 0ebe c4d6 16be 47a0 83be
00000030: 5eb4 12be 212f 09be 1f34 4ebd 0061 9ebc
00000040: 1630 69bc 9f7d 06bd 74a0 30bd 4f19 1dbe
00000050: 2696 12be 2fbe 8b3d a592 80bd e56f bebc

sequential_3/dense_7/MatMul f4 [24, 32]
-0.31179625 0.21794921 1.088385 -0.5015777 0.88131016 -0.27662992 1.166226 0.01943934
1.3310286 0.25598654 0.8986982 0.42996728 0.7232441 0.61041266 0.70569265 0.6623885
0.09262688 0.49864584 -0.11862765 0.5317513 -0.31641886 0.4607569 -0.35261378 0.4433647
-0.46264657 0.3164298 -0.6271835 0.27676493 -0.7372536 -0.14902793 -0.8836422 -0.43341115
-0.008109778 0.26894498 -0.5194826 0.3926911 -0.41015372 0.71114534 -0.23535874 0.9869788
-0.10767489 0.5738713 0.00909064 0.4053922 0.13306051 0.25286034 0.35282046 0.14656007
0.7936672 -0.16141362 0.47335166 -0.28187108 0.6107692 -0.9848572 0.09654418 -0.8436306
0.18303616 -0.9932445 0.12108588 -0.93893737 0.08225112 -1.2300614 -0.45519933 -1.7835501
-0.071538895 -0.21467331 -0.4154844 0.4209781 -0.5717652 0.73627627 0.25156203 0.8777411
-0.17413193 0.77460235 0.059920568 0.97298104 -0.23858035 0.6165946 -0.33010176 0.16718112
-0.09846345 0.48680842 -0.1587033 0.58514243 -0.27639484 0.2999783 -0.35637787 0.4898834
-0.3840303 0.0560634 -0.42879477 -0.019104218 -0.5428667 -0.59113854 -0.8261391 -1.7682008
0.19351012 0.2188403 -0.946996 0.07086796 -1.7228665 0.05655798 -1.299134 -0.18937281
-1.5341318 -0.4966988 -1.1627369 -0.19131057 -1.1266706 -0.3124908 -0.8244256 -0.24539098
-0.43141752 -0.10415263 -0.11259819 0.06249648 -0.06827535 -0.17011103 0.37116474 -0.032192886
0.55716366 -0.11016832 0.59613234 -0.22203058 0.7077718 -0.28303084 0.86091596 -0.4879608
-0.053495407 0.024910688 -0.5504216 0.5519558 0.027118353 0.60537493 0.0394761 0.57142645
-0.35492125 0.15372668 0.09024991 0.35153705 -0.07188094 0.25013557 -0.033274822 0.08311688
-0.06132756 0.08849062 -0.08871203 0.12858085 -0.10803413 -0.12079228 0.11095836 -0.0023209376
0.050916173 -0.16348593 0.18207131 -0.41364688 0.1524752 -0.824772 -0.9833151 -3.7294416
-0.16865763 -0.08537109 -0.9230364 -0.22281967 -1.5204759 -0.80338 -1.1417885 -0.9179777
-1.0517181 -0.50397325 -1.0472673 -0.2234295 -0.67501557 -0.13293485 -1.0293071 -0.026603393
-0.80174184 0.3589551 -0.5964444 0.4562553 0.04342955 0.35041615 0.03626905 0.27272108
0.16658445 0.29462567 0.13460852 0.45133495 0.34320155 0.31667978 0.4405313 0.35281837
0.2398982 -0.21663329 -0.34096748 0.19546054 -0.11975196 0.14706464 -0.102932215 0.10755273
1.0103487 0.6116419 -0.05542215 0.18281159 0.096540734 0.0025920742 0.526682 0.27291435
0.06744058 0.02143275 -0.16125949 -0.20101811 -0.08098181 -0.28754735 -0.07785354 -0.15193585
-0.011406631 -0.23781376 -0.059313048 -0.40769833 3.714692e-05 -0.7356179 -0.8416685 -3.3168087
-0.22558418 -0.23805106 -0.44566768 1.0959972 -0.34271768 1.6016229 -0.3335326 1.4181079
0.32646623 1.5050389 0.55012065 1.4583718 0.6053056 0.9698185 0.66610265 0.7275301
0.7463387 0.700648 0.5489414 0.29380918 0.8203446 0.08110584 0.7247865 -0.20875433
0.64889157 -0.28159273 0.60287476 -0.6766089 0.30224836 -0.7994533 -0.26005605 -1.3673881
00000000: c2a3 9fbe 142e 5f3e 3350 8b3f 6567 00bf
00000010: 8b9d 613f 70a2 8dbe e546 953f 403f 9f3c
00000020: 255f aa3f ab10 833e 1611 663f ac24 dc3e
00000030: 8626 393f 0144 1c3f 46a8 343f 4b92 293f
00000040: 29b3 bd3d 824e ff3e 0ef3 f2bd da20 083f
00000050: a701 a2be 54e8 eb3e cb89 b4be b300 e33e
00000060: 03e0 ecbe 1603 a23e 198f 20bf 22b4 8d3e
00000070: a7bc 3cbf c79a 18be 6036 62bf 11e8 ddbe
00000080: e0de 04bc 28b3 893e d0fc 04bf cf0e c93e
00000090: abff d1be 9f0d 363f e201 71be a5aa 7c3f
000000a0: a784 dcbd 3be9 123f e8f0 143c 918f cf3e
000000b0: 0441 083e e976 813e e2a4 b43e d813 163e
000000c0: c62d 4b3f 9d49 25be 265b f23e 6851 90be
000000d0: 5f5b 1c3f 9a1f 7cbf f4b8 c53d 2df8 57bf
000000e0: d56d 3b3e 4645 7ebf e0fb f73d 335e 70bf
000000f0: 4673 a83d a772 9dbf e30f e9be 5f4b e4bf
00000100: fc82 92bd 52d3 5bbe 5fba d4be 718a d73e
00000110: 345f 12bf 9a7c 3c3f bdcc 803e a4b3 603f
00000120: a44f 32be 574c 463f 456f 753d 4915 793f
00000130: 684e 74be 25d9 1d3f 1903 a9be 8731 2b3e
00000140: 35a7 c9bd f43e f93e 1e83 22be e5cb 153f
00000150: a083 8dbe c196 993e 2977 b6be ffd1 fa3e
00000160: 9f9f c4be bca2 653d fd8a dbbe 7380 9cbc
00000170: 50f9 0abf db54 17bf da7d 53bf 6754 e2bf
00000180: 8427 463e ac17 603e 546e 72bf 3923 913d
00000190: e486 dcbf 57a9 673d 064a a6bf f2ea 41be
000001a0: 6e5e c4bf 4e4f febe 90d4 94bf ebe6 43be
000001b0: be36 90bf cbfe 9fbe 8e0d 53bf c647 7bbe
000001c0: c2e2 dcbe f94d d5bd e199 e6bd 4ffc 7f3d
000001d0: f2d3 8bbd 9631 2ebe 4e09 be3e b0dc 03bd
000001e0: 47a2 0e3f ee9f e1bd 219c 183f fc5b 63be
000001f0: 8830 353f 6be9 90be fd64 5c3f ffd5 f9be
00000200: 001e 5bbd 8011 cc3c 6ee8 0cbf fa4c 0d3f
00000210: 4f27 de3c daf9 1a3f b1b1 213d 0149 123f
00000220: 3db8 b5be 876a 1d3e f2d4 b83d aafc b33e
00000230: 5036 93bd c511 803e 2e4b 08bd 2f39 aa3d
00000240: 9c32 7bbd 923a b53d a7ae b5bd b3aa 033e
00000250: ff40 ddbd f161 f7bd 233e e33d df1a 18bb
00000260: 7a8d 503d db68 27be e770 3a3e 86c9 d3be
00000270: 7522 1c3e 4224 53bf 8aba 7bbf 2caf 6ec0
00000280: 96b4 2cbe 0ad7 aebd 1d4c 6cbf d72a 64be
00000290: f49e c2bf 50aa 4dbf 2026 92bf 9600 6bbf
000002a0: b39e 86bf 6404 01bf db0c 86bf b4ca 64be
000002b0: d2cd 2cbf 1320 08be 56c0 83bf 5cef d9bc
000002c0: f43e 4dbf f6c8 b73e 95b0 18bf 4b9a e93e
000002d0: 2fe3 313d bf69 b33e db8e 143d 19a2 8b3e
000002e0: 1d95 2a3e 2dd9 963e d1d6 093e 6015 e73e
000002f0: 1db8 af3e da23 a23e 528d e13e 9ca4 b43e
00000300: e0a7 753e 1ed5 5dbe 4a93 aebe cf26 483e
00000310: 8440 f5bd 1d98 163e 20ce d2bd 9b44 dc3d
00000320: 1b53 813f 9094 1c3f 5602 63bd f632 3b3e
00000330: 26b7 c53d cadf 293b a2d4 063f 6ebb 8b3e
00000340: 491e 8a3d bc93 af3c 3521 25be b1d7 4dbe
00000350: cbd9 a5bd 6839 93be ad71 9fbd 1295 1bbe
00000360: e1e2 3abc 7385 73be 3df2 72bd d6bd d0be
00000370: 34ce 1b38 7451 3cbf 9677 57bf 9846 54c0
00000380: 8aff 66be a8c3 73be 8e2e e4be a349 8c3f
00000390: b178 afbe fb01 cd3f c9c4 aabe 8f84 b53f
000003a0: 9526 a73e 1da5 c03f b5d4 0c3f edab ba3f
000003b0: 4ff5 1a3f 0646 783f b485 2a3f 6a3f 3a3f
000003c0: 0e10 3f3f ab5d 333f 6c87 0c3f 286e 963e
000003d0: 1b02 523f d21a a63d 9c8b 393f b2c3 55be
000003e0: c21d 263f ec2c 90be 0056 1a3f 3e36 2dbf
000003f0: 4cc0 9a3e f9a8 4cbf 1126 85be 9306 afbf

sequential_3/dense_8/MatMul f4 [10, 24]
-0.47618476 0.6699439 -0.19552286 -1.524337 0.65553933 -0.9403916 0.8427119 -0.54744446
-0.8064045 -0.43038285 -0.40364757 -0.37870017 -0.7649433 -0.17440979 0.17275807 0.5048818
0.26704055 0.46732146 0.31801283 -0.0067551523 -0.5139395 0.86837614 -2.5753155 -3.7951756
-4.016613 -3.6615317 -3.0568562 -3.4778829 -0.040929183 -2.3419724 -0.13804334 -4.7956414
-3.862445 -3.1340575 -4.0447707 -2.2952034 -1.9008392 -3.443361 -3.4160903 -4.246648
-3.1793225 -3.7549615 -2.8028655 -3.4132876 -3.1124463 -0.14558175 -1.5335075 -1.5608419
0.40016142 -0.4457158 0.22340819 0.25957337 -0.3772032 -0.80422497 -0.41440144 0.21961096
0.24184161 0.054671783 0.22374731 -0.36635888 0.35057536 0.14372256 0.6660308 0.37265682
0.39330393 0.711454 -0.35465166 0.056149356 0.42360687 0.56095064 -0.6265237 0.2410809
-1.4327939 0.23167314 -0.4071546 -0.3809056 0.42620432 -0.11846457 0.22943379 -0.08607414
-1.0420153 -0.05700097 -0.10523147 -0.18039085 -0.21450059 0.90887934 -0.887323 0.101401515
-0.7193773 -0.26200387 0.5882798 -1.1219008 -0.11610696 -0.42410645 -0.112194814 -0.26687735
0.37348014 0.14059429 -0.9616085 0.07264509 -0.124492764 0.120994955 -0.16376087 -1.0965827
-0.79076374 -0.096696295 -0.734048 0.15014207 -0.3241229 0.26919946 0.95638084 0.22345324
0.6645356 0.27280933 0.61553437 -0.17021978 -0.4616583 -1.1116134 0.94481725 0.4363172
-0.2036598 0.2043225 0.37523833 -0.198328 -0.10627377 -0.9363195 0.07263906 -0.8786331
0.03641406 -1.2885233 -0.4855494 -2.423799 -0.16334175 -0.7561579 -0.010567787 -0.33708632
-0.24214058 0.21717618 -0.007093753 -0.007982561 -0.31612706 0.43142843 -0.623193 -0.5408109
0.26049906 0.44280335 -0.45806938 0.26413077 -0.08124531 0.37862366 -0.24213643 0.06555105
0.20947798 0.2866045 0.08201503 -0.063276805 0.25263458 0.8906921 0.24976367 0.7176499
-0.08067109 -0.2898791 -0.53479993 -0.028032862 0.2527223 0.017674062 0.052384336 -0.02597533
0.55256283 0.25677177 0.8320385 0.35070035 0.028378889 0.20057517 -0.0021776292 0.32931706
0.89190084 0.36215785 0.20062123 0.4772944 -0.03850809 -1.3089505 0.87063456 0.31601274
0.82206565 0.22304632 0.3151051 0.5325 0.04576694 0.09130521 0.7820975 0.68901265
0.8492268 0.5544311 0.7175518 0.54565 0.04490476 0.18972348 0.030558717 0.41226906
1.2264556 0.3719553 0.34355682 0.19012246 0.3345417 0.21839927 1.2671673 0.74044347
0.992672 0.6860985 0.36263865 0.51757646 0.45601842 0.35959116 0.41488206 0.65809655
-0.066596165 0.64415294 0.3710381 0.052315287 1.3457075 0.12765579 1.0435936 -1.7191939
0.72977775 0.041734613 -1.3033035 -0.0014332517 -2.9173431 0.44993004 -2.1363566 1.1191791
-0.41913992 -0.3415915 0.794396 -0.07119328 -2.3390248 -1.5273272 0.16990438 0.025619766
00000000: 7dce f3be 7281 2b3f 2537 48be 7a1d c3bf
00000010: 6dd1 273f 81bd 70bf f8bb 573f 5225 0cbf
00000020: 8670 4ebf 245b dcbe e5aa cebe fde4 c1be
00000030: 53d3 43bf 7b98 32be 7ee7 303e ef3f 013f
00000040: 8ab9 883e c244 ef3e 94d2 a23e 535a ddbb
00000050: 8a91 03bf e64d 5e3f f8d1 24c0 28e4 72c0
00000060: 1888 80c0 8956 6ac0 88a3 43c0 a295 5ec0
00000070: 5ca5 27bd e0e2 15c0 3c5b 0dbe e575 99c0
00000080: 4d32 77c0 6694 48c0 c36e 81c0 9de4 12c0
00000090: b34e f3bf 0760 5cc0 39a1 5ac0 8ae4 87c0
000000a0: 057a 4bc0 4a51 70c0 2662 33c0 4e73 5ac0
000000b0: 5232 47c0 6213 15be f949 c4bf abc9 c7bf
000000c0: f5e1 cc3e dd34 e4be 1ec5 643e cde6 843e
000000d0: c720 c1be b0e1 4dbf 6d2c d4be b2e1 603e
000000e0: 54a5 773e 85ef 5f3d 041e 653e 6493 bbbe
000000f0: 9d7e b33e 022c 133e ff80 2a3f e0cc be3e
00000100: 225f c93e d921 363f e794 b5be defc 653d
00000110: 00e3 d83e 769a 0f3f db63 20bf e9dd 763e
00000120: ca65 b7bf b93b 6d3e 9176 d0be 0f06 c3be
00000130: 7437 da3e 8d9d f2bd b1f0 6a3e a447 b0bd
00000140: c260 85bf d979 69bd 9983 d7bd 61b8 38be
00000150: 0ba6 5bbe 51ac 683f 9a27 63bf 99ab cf3d
00000160: 1c29 38bf 5f25 86be 8199 163f 729a 8fbf
00000170: 7cc9 edbd 7b24 d9be 65c6 e5bd 26a4 88be
00000180: ca38 bf3e f3f7 0f3e fa2b 76bf f3c6 943d
00000190: 10f6 febd 34cc f73d eeb0 27be d25c 8cbf
000001a0: 7e6f 4abf b508 c6bd 92ea 3bbf d8be 193e
000001b0: 70f3 a5be 83d4 893e 60d5 743f edd0 643e
000001c0: 011f 2a3f aaad 8b3e a993 1d3f 184e 2ebe
000001d0: 7a5e ecbe 5949 8ebf 8bdf 713f f864 df3e
000001e0: 328c 50be eb39 513e 3d1f c03e 7f16 4bbe
000001f0: 10a6 d9bd a2b2 6fbf cac3 943d 19ee 60bf
00000200: e926 153d 55ee a4bf ee99 f8be 861f 1bc0
00000210: 0f43 27be 9093 41bf 8324 2dbc 9496 acbe
00000220: b3f3 77be 6f63 5e3e b772 e8bb 4ac9 02bc
00000230: 68db a1be 30e4 dc3e 9489 1fbf 9572 0abf
00000240: 2260 853e 1fb7 e23e 1288 eabe 263c 873e
00000250: f163 a6bd f6da c13e 9df2 77be a13f 863d
00000260: 6581 563e d3bd 923e 7ff7 a73d 4597 81bd
00000270: 5259 813e 6604 643f 0cc2 7f3e e7b7 373f
00000280: e236 a5bd 096b 94be a6e8 08bf 2ca5 e5bc
00000290: d164 813e 32c9 903c f590 563d 37ca d4bc
000002a0: c274 0d3f 9777 833e 7a00 553f ff8e b33e
000002b0: d87a e83c 9463 4d3e 8eb6 0ebb 3f9c a83e
000002c0: 9d53 643f c16c b93e a76f 4d3e ee5f f43e
000002d0: a9ba 1dbd b18b a7bf e8e1 5e3f 6ccc a13e
000002e0: e572 523f 4166 643e 7555 a13e ec51 083f
000002f0: 1d76 3b3d 3afe ba3d 8b37 483f 2263 303f
00000300: ed66 593f 32ef 0d3f 7ab1 373f b8af 0b3f
00000310: 0eee 373d df46 423e 4656 fa3c ee14 d33e
00000320: 7ffc 9c3f ed70 be3e aee6 af3e 76af 423e
00000330: 0d49 ab3e 0fa4 5f3e 8a32 a23f b48d 3d3f
00000340: c11f 7e3f 27a4 2f3f c6ab b93e e47f 043f
00000350: 3f7b e93e 551c b83e 6c6b d43e 0479 283f
00000360: 9263 88bd 35e7 243f b5f8 bd3e 8e48 563d
00000370: 2540 ac3f 33b8 023e 7a94 853f 8c0e dcbf
00000380: b7d2 3a3f eaf1 2a3d a6d2 a6bf f2db bbba
00000390: c0b5 3ac0 3b5d e63e 11ba 08c0 4341 8f3f
000003a0: 8299 d6be 15e5 aebe 895d 4b3f c8cd 91bd
000003b0: 95b2 15c0 757f c3bf 6afb 2d3e 8be0 d13c

sequential_3/dense_9/MatMul f4 [4, 10]
0.09092913 4.724279 -0.39467397 -0.89859855 0.091959454 -0.5229897 -0.49645692 -0.9471048
0.60862887 0.15908118 -1.9176298 -1.9219378 0.9013978 -1.3066957 0.2566593 2.3963444
0.19523655 0.40054747 -1.1656226 1.5867025 2.0945442 -1.9739478 0.3906086 1.7520051
0.45276842 -2.5816565 0.8472024 0.3677411 -1.0085074 -1.6670877 -0.9253726 -2.99653
-0.52751625 1.1217821 -1.3471314 0.6872742 -0.6639688 -1.179101 0.83216083 0.0859929
00000000: 0d39 ba3d 4b2d 9740 b512 cabe 8e0a 66bf
00000010: 3d55 bc3d a7e2 05bf 9a2f febe 7675 72bf
00000020: 1acf 1b3f 2de6 223e e574 f5bf 0f02 f6bf
00000030: 02c2 663f ce41 a7bf d968 833e b55d 1940
00000040: 17ec 473e 8f14 cd3e 1f33 95bf 1119 cb3f
00000050: 030d 0640 52aa fcbf dafd c73e b441 e03f
00000060: 43d1 e73e dc39 25c0 42e2 583f 9048 bc3e
00000070: c516 81bf 2163 d5bf 38e5 6cbf 26c7 3fc0
00000080: 4e0b 07bf 8e96 8f3f cd6e acbf 34f1 2f3f
00000090: dcf9 29bf c8ec 96bf 7e08 553f 0c1d b03d
